…
Learning Rate: 0.0001, Batch Size: 32, Epochs: 30
============================================================
Model: "UNet"
__________________________________________________________________________________________________
 Layer (type)                Output Shape                 Param #   Connected to                  
==================================================================================================
 input_1 (InputLayer)        [(None, 256, 256, 1)]        0         []                            
                                                                                                  
 conv2d (Conv2D)             (None, 256, 256, 64)         640       ['input_1[0][0]']             
                                                                                                  
 batch_normalization (Batch  (None, 256, 256, 64)         256       ['conv2d[0][0]']              
 Normalization)                                                                                   
                                                                                                  
 activation (Activation)     (None, 256, 256, 64)         0         ['batch_normalization[0][0]'] 
                                                                                                  
 conv2d_1 (Conv2D)           (None, 256, 256, 64)         36928     ['activation[0][0]']          
                                                                                                  
 batch_normalization_1 (Bat  (None, 256, 256, 64)         256       ['conv2d_1[0][0]']            
 chNormalization)                                                                                 
                                                                                                  
 activation_1 (Activation)   (None, 256, 256, 64)         0         ['batch_normalization_1[0][0]'
                                                                    ]                             
                                                                                                  
 max_pooling2d (MaxPooling2  (None, 128, 128, 64)         0         ['activation_1[0][0]']        
 D)                                                                                               
                                                                                                  
 conv2d_2 (Conv2D)           (None, 128, 128, 128)        73856     ['max_pooling2d[0][0]']       
                                                                                                  
 batch_normalization_2 (Bat  (None, 128, 128, 128)        512       ['conv2d_2[0][0]']            
 chNormalization)                                                                                 
                                                                                                  
 activation_2 (Activation)   (None, 128, 128, 128)        0         ['batch_normalization_2[0][0]'
                                                                    ]                             
                                                                                                  
 conv2d_3 (Conv2D)           (None, 128, 128, 128)        147584    ['activation_2[0][0]']        
                                                                                                  
 batch_normalization_3 (Bat  (None, 128, 128, 128)        512       ['conv2d_3[0][0]']            
 chNormalization)                                                                                 
                                                                                                  
 activation_3 (Activation)   (None, 128, 128, 128)        0         ['batch_normalization_3[0][0]'
                                                                    ]                             
                                                                                                  
 max_pooling2d_1 (MaxPoolin  (None, 64, 64, 128)          0         ['activation_3[0][0]']        
 g2D)                                                                                             
                                                                                                  
 conv2d_4 (Conv2D)           (None, 64, 64, 256)          295168    ['max_pooling2d_1[0][0]']     
                                                                                                  
 batch_normalization_4 (Bat  (None, 64, 64, 256)          1024      ['conv2d_4[0][0]']            
 chNormalization)                                                                                 
                                                                                                  
 activation_4 (Activation)   (None, 64, 64, 256)          0         ['batch_normalization_4[0][0]'
                                                                    ]                             
                                                                                                  
 conv2d_5 (Conv2D)           (None, 64, 64, 256)          590080    ['activation_4[0][0]']        
                                                                                                  
 batch_normalization_5 (Bat  (None, 64, 64, 256)          1024      ['conv2d_5[0][0]']            
 chNormalization)                                                                                 
                                                                                                  
 activation_5 (Activation)   (None, 64, 64, 256)          0         ['batch_normalization_5[0][0]'
                                                                    ]                             
                                                                                                  
 max_pooling2d_2 (MaxPoolin  (None, 32, 32, 256)          0         ['activation_5[0][0]']        
 g2D)                                                                                             
                                                                                                  
 conv2d_6 (Conv2D)           (None, 32, 32, 512)          1180160   ['max_pooling2d_2[0][0]']     
                                                                                                  
 batch_normalization_6 (Bat  (None, 32, 32, 512)          2048      ['conv2d_6[0][0]']            
 chNormalization)                                                                                 
                                                                                                  
 activation_6 (Activation)   (None, 32, 32, 512)          0         ['batch_normalization_6[0][0]'
                                                                    ]                             
                                                                                                  
 conv2d_7 (Conv2D)           (None, 32, 32, 512)          2359808   ['activation_6[0][0]']        
                                                                                                  
 batch_normalization_7 (Bat  (None, 32, 32, 512)          2048      ['conv2d_7[0][0]']            
 chNormalization)                                                                                 
                                                                                                  
 activation_7 (Activation)   (None, 32, 32, 512)          0         ['batch_normalization_7[0][0]'
                                                                    ]                             
                                                                                                  
 max_pooling2d_3 (MaxPoolin  (None, 16, 16, 512)          0         ['activation_7[0][0]']        
 g2D)                                                                                             
                                                                                                  
 conv2d_8 (Conv2D)           (None, 16, 16, 1024)         4719616   ['max_pooling2d_3[0][0]']     
                                                                                                  
 batch_normalization_8 (Bat  (None, 16, 16, 1024)         4096      ['conv2d_8[0][0]']            
 chNormalization)                                                                                 
                                                                                                  
 activation_8 (Activation)   (None, 16, 16, 1024)         0         ['batch_normalization_8[0][0]'
                                                                    ]                             
                                                                                                  
 conv2d_9 (Conv2D)           (None, 16, 16, 1024)         9438208   ['activation_8[0][0]']        
                                                                                                  
 batch_normalization_9 (Bat  (None, 16, 16, 1024)         4096      ['conv2d_9[0][0]']            
 chNormalization)                                                                                 
                                                                                                  
 activation_9 (Activation)   (None, 16, 16, 1024)         0         ['batch_normalization_9[0][0]'
                                                                    ]                             
                                                                                                  
 up_sampling2d (UpSampling2  (None, 32, 32, 1024)         0         ['activation_9[0][0]']        
 D)                                                                                               
                                                                                                  
 concatenate (Concatenate)   (None, 32, 32, 1536)         0         ['up_sampling2d[0][0]',       
                                                                     'activation_7[0][0]']        
                                                                                                  
 conv2d_10 (Conv2D)          (None, 32, 32, 512)          7078400   ['concatenate[0][0]']         
                                                                                                  
 batch_normalization_10 (Ba  (None, 32, 32, 512)          2048      ['conv2d_10[0][0]']           
 tchNormalization)                                                                                
                                                                                                  
 activation_10 (Activation)  (None, 32, 32, 512)          0         ['batch_normalization_10[0][0]
                                                                    ']                            
                                                                                                  
 conv2d_11 (Conv2D)          (None, 32, 32, 512)          2359808   ['activation_10[0][0]']       
                                                                                                  
 batch_normalization_11 (Ba  (None, 32, 32, 512)          2048      ['conv2d_11[0][0]']           
 tchNormalization)                                                                                
                                                                                                  
 activation_11 (Activation)  (None, 32, 32, 512)          0         ['batch_normalization_11[0][0]
                                                                    ']                            
                                                                                                  
 up_sampling2d_1 (UpSamplin  (None, 64, 64, 512)          0         ['activation_11[0][0]']       
 g2D)                                                                                             
                                                                                                  
 concatenate_1 (Concatenate  (None, 64, 64, 768)          0         ['up_sampling2d_1[0][0]',     
 )                                                                   'activation_5[0][0]']        
                                                                                                  
 conv2d_12 (Conv2D)          (None, 64, 64, 256)          1769728   ['concatenate_1[0][0]']       
                                                                                                  
 batch_normalization_12 (Ba  (None, 64, 64, 256)          1024      ['conv2d_12[0][0]']           
 tchNormalization)                                                                                
                                                                                                  
 activation_12 (Activation)  (None, 64, 64, 256)          0         ['batch_normalization_12[0][0]
                                                                    ']                            
                                                                                                  
 conv2d_13 (Conv2D)          (None, 64, 64, 256)          590080    ['activation_12[0][0]']       
                                                                                                  
 batch_normalization_13 (Ba  (None, 64, 64, 256)          1024      ['conv2d_13[0][0]']           
 tchNormalization)                                                                                
                                                                                                  
 activation_13 (Activation)  (None, 64, 64, 256)          0         ['batch_normalization_13[0][0]
                                                                    ']                            
                                                                                                  
 up_sampling2d_2 (UpSamplin  (None, 128, 128, 256)        0         ['activation_13[0][0]']       
 g2D)                                                                                             
                                                                                                  
 concatenate_2 (Concatenate  (None, 128, 128, 384)        0         ['up_sampling2d_2[0][0]',     
 )                                                                   'activation_3[0][0]']        
                                                                                                  
 conv2d_14 (Conv2D)          (None, 128, 128, 128)        442496    ['concatenate_2[0][0]']       
                                                                                                  
 batch_normalization_14 (Ba  (None, 128, 128, 128)        512       ['conv2d_14[0][0]']           
 tchNormalization)                                                                                
                                                                                                  
 activation_14 (Activation)  (None, 128, 128, 128)        0         ['batch_normalization_14[0][0]
                                                                    ']                            
                                                                                                  
 conv2d_15 (Conv2D)          (None, 128, 128, 128)        147584    ['activation_14[0][0]']       
                                                                                                  
 batch_normalization_15 (Ba  (None, 128, 128, 128)        512       ['conv2d_15[0][0]']           
 tchNormalization)                                                                                
                                                                                                  
 activation_15 (Activation)  (None, 128, 128, 128)        0         ['batch_normalization_15[0][0]
                                                                    ']                            
                                                                                                  
 up_sampling2d_3 (UpSamplin  (None, 256, 256, 128)        0         ['activation_15[0][0]']       
 g2D)                                                                                             
                                                                                                  
 concatenate_3 (Concatenate  (None, 256, 256, 192)        0         ['up_sampling2d_3[0][0]',     
 )                                                                   'activation_1[0][0]']        
                                                                                                  
 conv2d_16 (Conv2D)          (None, 256, 256, 64)         110656    ['concatenate_3[0][0]']       
                                                                                                  
 batch_normalization_16 (Ba  (None, 256, 256, 64)         256       ['conv2d_16[0][0]']           
 tchNormalization)                                                                                
                                                                                                  
 activation_16 (Activation)  (None, 256, 256, 64)         0         ['batch_normalization_16[0][0]
                                                                    ']                            
                                                                                                  
 conv2d_17 (Conv2D)          (None, 256, 256, 64)         36928     ['activation_16[0][0]']       
                                                                                                  
 batch_normalization_17 (Ba  (None, 256, 256, 64)         256       ['conv2d_17[0][0]']           
 tchNormalization)                                                                                
                                                                                                  
 activation_17 (Activation)  (None, 256, 256, 64)         0         ['batch_normalization_17[0][0]
                                                                    ']                            
                                                                                                  
 conv2d_18 (Conv2D)          (None, 256, 256, 1)          65        ['activation_17[0][0]']       
                                                                                                  
 batch_normalization_18 (Ba  (None, 256, 256, 1)          4         ['conv2d_18[0][0]']           
 tchNormalization)                                                                                
                                                                                                  
 activation_18 (Activation)  (None, 256, 256, 1)          0         ['batch_normalization_18[0][0]
                                                                    ']                            
                                                                                                  
==================================================================================================
Total params: 31401349 (119.79 MB)
Trainable params: 31389571 (119.74 MB)
…
__________________________________________________________________________________________________
None
✓ focal_loss imported successfully
Model: "UNet"
__________________________________________________________________________________________________
 Layer (type)                Output Shape                 Param #   Connected to                  
==================================================================================================
 input_2 (InputLayer)        [(None, 256, 256, 3)]        0         []                            
                                                                                                  
 conv2d_19 (Conv2D)          (None, 256, 256, 64)         1792      ['input_2[0][0]']             
                                                                                                  
 batch_normalization_19 (Ba  (None, 256, 256, 64)         256       ['conv2d_19[0][0]']           
 tchNormalization)                                                                                
                                                                                                  
 activation_19 (Activation)  (None, 256, 256, 64)         0         ['batch_normalization_19[0][0]
                                                                    ']                            
                                                                                                  
 conv2d_20 (Conv2D)          (None, 256, 256, 64)         36928     ['activation_19[0][0]']       
                                                                                                  
 batch_normalization_20 (Ba  (None, 256, 256, 64)         256       ['conv2d_20[0][0]']           
 tchNormalization)                                                                                
                                                                                                  
 activation_20 (Activation)  (None, 256, 256, 64)         0         ['batch_normalization_20[0][0]
                                                                    ']                            
                                                                                                  
 max_pooling2d_4 (MaxPoolin  (None, 128, 128, 64)         0         ['activation_20[0][0]']       
 g2D)                                                                                             
                                                                                                  
 conv2d_21 (Conv2D)          (None, 128, 128, 128)        73856     ['max_pooling2d_4[0][0]']     
                                                                                                  
 batch_normalization_21 (Ba  (None, 128, 128, 128)        512       ['conv2d_21[0][0]']           
 tchNormalization)                                                                                
                                                                                                  
 activation_21 (Activation)  (None, 128, 128, 128)        0         ['batch_normalization_21[0][0]
                                                                    ']                            
                                                                                                  
 conv2d_22 (Conv2D)          (None, 128, 128, 128)        147584    ['activation_21[0][0]']       
                                                                                                  
 batch_normalization_22 (Ba  (None, 128, 128, 128)        512       ['conv2d_22[0][0]']           
 tchNormalization)                                                                                
                                                                                                  
 activation_22 (Activation)  (None, 128, 128, 128)        0         ['batch_normalization_22[0][0]
                                                                    ']                            
                                                                                                  
 max_pooling2d_5 (MaxPoolin  (None, 64, 64, 128)          0         ['activation_22[0][0]']       
 g2D)                                                                                             
                                                                                                  
 conv2d_23 (Conv2D)          (None, 64, 64, 256)          295168    ['max_pooling2d_5[0][0]']     
                                                                                                  
 batch_normalization_23 (Ba  (None, 64, 64, 256)          1024      ['conv2d_23[0][0]']           
 tchNormalization)                                                                                
                                                                                                  
 activation_23 (Activation)  (None, 64, 64, 256)          0         ['batch_normalization_23[0][0]
                                                                    ']                            
                                                                                                  
 conv2d_24 (Conv2D)          (None, 64, 64, 256)          590080    ['activation_23[0][0]']       
                                                                                                  
 batch_normalization_24 (Ba  (None, 64, 64, 256)          1024      ['conv2d_24[0][0]']           
 tchNormalization)                                                                                
                                                                                                  
 activation_24 (Activation)  (None, 64, 64, 256)          0         ['batch_normalization_24[0][0]
                                                                    ']                            
                                                                                                  
 max_pooling2d_6 (MaxPoolin  (None, 32, 32, 256)          0         ['activation_24[0][0]']       
 g2D)                                                                                             
                                                                                                  
 conv2d_25 (Conv2D)          (None, 32, 32, 512)          1180160   ['max_pooling2d_6[0][0]']     
                                                                                                  
 batch_normalization_25 (Ba  (None, 32, 32, 512)          2048      ['conv2d_25[0][0]']           
 tchNormalization)                                                                                
                                                                                                  
 activation_25 (Activation)  (None, 32, 32, 512)          0         ['batch_normalization_25[0][0]
                                                                    ']                            
                                                                                                  
 conv2d_26 (Conv2D)          (None, 32, 32, 512)          2359808   ['activation_25[0][0]']       
                                                                                                  
 batch_normalization_26 (Ba  (None, 32, 32, 512)          2048      ['conv2d_26[0][0]']           
 tchNormalization)                                                                                
                                                                                                  
 activation_26 (Activation)  (None, 32, 32, 512)          0         ['batch_normalization_26[0][0]
                                                                    ']                            
                                                                                                  
 max_pooling2d_7 (MaxPoolin  (None, 16, 16, 512)          0         ['activation_26[0][0]']       
 g2D)                                                                                             
                                                                                                  
 conv2d_27 (Conv2D)          (None, 16, 16, 1024)         4719616   ['max_pooling2d_7[0][0]']     
                                                                                                  
 batch_normalization_27 (Ba  (None, 16, 16, 1024)         4096      ['conv2d_27[0][0]']           
 tchNormalization)                                                                                
                                                                                                  
 activation_27 (Activation)  (None, 16, 16, 1024)         0         ['batch_normalization_27[0][0]
                                                                    ']                            
                                                                                                  
 conv2d_28 (Conv2D)          (None, 16, 16, 1024)         9438208   ['activation_27[0][0]']       
                                                                                                  
 batch_normalization_28 (Ba  (None, 16, 16, 1024)         4096      ['conv2d_28[0][0]']           
 tchNormalization)                                                                                
                                                                                                  
 activation_28 (Activation)  (None, 16, 16, 1024)         0         ['batch_normalization_28[0][0]
                                                                    ']                            
                                                                                                  
 up_sampling2d_4 (UpSamplin  (None, 32, 32, 1024)         0         ['activation_28[0][0]']       
 g2D)                                                                                             
                                                                                                  
 concatenate_4 (Concatenate  (None, 32, 32, 1536)         0         ['up_sampling2d_4[0][0]',     
 )                                                                   'activation_26[0][0]']       
                                                                                                  
 conv2d_29 (Conv2D)          (None, 32, 32, 512)          7078400   ['concatenate_4[0][0]']       
                                                                                                  
 batch_normalization_29 (Ba  (None, 32, 32, 512)          2048      ['conv2d_29[0][0]']           
 tchNormalization)                                                                                
                                                                                                  
 activation_29 (Activation)  (None, 32, 32, 512)          0         ['batch_normalization_29[0][0]
                                                                    ']                            
                                                                                                  
 conv2d_30 (Conv2D)          (None, 32, 32, 512)          2359808   ['activation_29[0][0]']       
                                                                                                  
 batch_normalization_30 (Ba  (None, 32, 32, 512)          2048      ['conv2d_30[0][0]']           
 tchNormalization)                                                                                
                                                                                                  
 activation_30 (Activation)  (None, 32, 32, 512)          0         ['batch_normalization_30[0][0]
                                                                    ']                            
                                                                                                  
 up_sampling2d_5 (UpSamplin  (None, 64, 64, 512)          0         ['activation_30[0][0]']       
 g2D)                                                                                             
                                                                                                  
 concatenate_5 (Concatenate  (None, 64, 64, 768)          0         ['up_sampling2d_5[0][0]',     
 )                                                                   'activation_24[0][0]']       
                                                                                                  
 conv2d_31 (Conv2D)          (None, 64, 64, 256)          1769728   ['concatenate_5[0][0]']       
                                                                                                  
 batch_normalization_31 (Ba  (None, 64, 64, 256)          1024      ['conv2d_31[0][0]']           
 tchNormalization)                                                                                
                                                                                                  
 activation_31 (Activation)  (None, 64, 64, 256)          0         ['batch_normalization_31[0][0]
                                                                    ']                            
                                                                                                  
 conv2d_32 (Conv2D)          (None, 64, 64, 256)          590080    ['activation_31[0][0]']       
                                                                                                  
 batch_normalization_32 (Ba  (None, 64, 64, 256)          1024      ['conv2d_32[0][0]']           
 tchNormalization)                                                                                
                                                                                                  
 activation_32 (Activation)  (None, 64, 64, 256)          0         ['batch_normalization_32[0][0]
                                                                    ']                            
                                                                                                  
 up_sampling2d_6 (UpSamplin  (None, 128, 128, 256)        0         ['activation_32[0][0]']       
 g2D)                                                                                             
                                                                                                  
 concatenate_6 (Concatenate  (None, 128, 128, 384)        0         ['up_sampling2d_6[0][0]',     
 )                                                                   'activation_22[0][0]']       
                                                                                                  
 conv2d_33 (Conv2D)          (None, 128, 128, 128)        442496    ['concatenate_6[0][0]']       
                                                                                                  
 batch_normalization_33 (Ba  (None, 128, 128, 128)        512       ['conv2d_33[0][0]']           
 tchNormalization)                                                                                
                                                                                                  
 activation_33 (Activation)  (None, 128, 128, 128)        0         ['batch_normalization_33[0][0]
                                                                    ']                            
                                                                                                  
 conv2d_34 (Conv2D)          (None, 128, 128, 128)        147584    ['activation_33[0][0]']       
                                                                                                  
 batch_normalization_34 (Ba  (None, 128, 128, 128)        512       ['conv2d_34[0][0]']           
 tchNormalization)                                                                                
                                                                                                  
 activation_34 (Activation)  (None, 128, 128, 128)        0         ['batch_normalization_34[0][0]
                                                                    ']                            
                                                                                                  
 up_sampling2d_7 (UpSamplin  (None, 256, 256, 128)        0         ['activation_34[0][0]']       
 g2D)                                                                                             
                                                                                                  
 concatenate_7 (Concatenate  (None, 256, 256, 192)        0         ['up_sampling2d_7[0][0]',     
 )                                                                   'activation_20[0][0]']       
                                                                                                  
 conv2d_35 (Conv2D)          (None, 256, 256, 64)         110656    ['concatenate_7[0][0]']       
                                                                                                  
 batch_normalization_35 (Ba  (None, 256, 256, 64)         256       ['conv2d_35[0][0]']           
 tchNormalization)                                                                                
                                                                                                  
 activation_35 (Activation)  (None, 256, 256, 64)         0         ['batch_normalization_35[0][0]
                                                                    ']                            
                                                                                                  
 conv2d_36 (Conv2D)          (None, 256, 256, 64)         36928     ['activation_35[0][0]']       
                                                                                                  
 batch_normalization_36 (Ba  (None, 256, 256, 64)         256       ['conv2d_36[0][0]']           
 tchNormalization)                                                                                
                                                                                                  
 activation_36 (Activation)  (None, 256, 256, 64)         0         ['batch_normalization_36[0][0]
                                                                    ']                            
                                                                                                  
 conv2d_37 (Conv2D)          (None, 256, 256, 1)          65        ['activation_36[0][0]']       
                                                                                                  
 batch_normalization_37 (Ba  (None, 256, 256, 1)          4         ['conv2d_37[0][0]']           
 tchNormalization)                                                                                
                                                                                                  
 activation_37 (Activation)  (None, 256, 256, 1)          0         ['batch_normalization_37[0][0]
                                                                    ']                            
                                                                                                  
==================================================================================================
Total params: 31402501 (119.79 MB)
Trainable params: 31390723 (119.75 MB)
…
