…
Starting mitochondria segmentation training...
==================================================
Model: "UNet"
__________________________________________________________________________________________________
 Layer (type)                Output Shape                 Param #   Connected to                  
==================================================================================================
 input_1 (InputLayer)        [(None, 256, 256, 1)]        0         []                            
                                                                                                  
 conv2d (Conv2D)             (None, 256, 256, 64)         640       ['input_1[0][0]']             
                                                                                                  
 batch_normalization (Batch  (None, 256, 256, 64)         256       ['conv2d[0][0]']              
 Normalization)                                                                                   
                                                                                                  
 activation (Activation)     (None, 256, 256, 64)         0         ['batch_normalization[0][0]'] 
                                                                                                  
 conv2d_1 (Conv2D)           (None, 256, 256, 64)         36928     ['activation[0][0]']          
                                                                                                  
 batch_normalization_1 (Bat  (None, 256, 256, 64)         256       ['conv2d_1[0][0]']            
 chNormalization)                                                                                 
                                                                                                  
 activation_1 (Activation)   (None, 256, 256, 64)         0         ['batch_normalization_1[0][0]'
                                                                    ]                             
                                                                                                  
 max_pooling2d (MaxPooling2  (None, 128, 128, 64)         0         ['activation_1[0][0]']        
 D)                                                                                               
                                                                                                  
 conv2d_2 (Conv2D)           (None, 128, 128, 128)        73856     ['max_pooling2d[0][0]']       
                                                                                                  
 batch_normalization_2 (Bat  (None, 128, 128, 128)        512       ['conv2d_2[0][0]']            
 chNormalization)                                                                                 
                                                                                                  
 activation_2 (Activation)   (None, 128, 128, 128)        0         ['batch_normalization_2[0][0]'
                                                                    ]                             
                                                                                                  
 conv2d_3 (Conv2D)           (None, 128, 128, 128)        147584    ['activation_2[0][0]']        
                                                                                                  
 batch_normalization_3 (Bat  (None, 128, 128, 128)        512       ['conv2d_3[0][0]']            
 chNormalization)                                                                                 
                                                                                                  
 activation_3 (Activation)   (None, 128, 128, 128)        0         ['batch_normalization_3[0][0]'
                                                                    ]                             
                                                                                                  
 max_pooling2d_1 (MaxPoolin  (None, 64, 64, 128)          0         ['activation_3[0][0]']        
 g2D)                                                                                             
                                                                                                  
 conv2d_4 (Conv2D)           (None, 64, 64, 256)          295168    ['max_pooling2d_1[0][0]']     
                                                                                                  
 batch_normalization_4 (Bat  (None, 64, 64, 256)          1024      ['conv2d_4[0][0]']            
 chNormalization)                                                                                 
                                                                                                  
 activation_4 (Activation)   (None, 64, 64, 256)          0         ['batch_normalization_4[0][0]'
                                                                    ]                             
                                                                                                  
 conv2d_5 (Conv2D)           (None, 64, 64, 256)          590080    ['activation_4[0][0]']        
                                                                                                  
 batch_normalization_5 (Bat  (None, 64, 64, 256)          1024      ['conv2d_5[0][0]']            
 chNormalization)                                                                                 
                                                                                                  
 activation_5 (Activation)   (None, 64, 64, 256)          0         ['batch_normalization_5[0][0]'
                                                                    ]                             
                                                                                                  
 max_pooling2d_2 (MaxPoolin  (None, 32, 32, 256)          0         ['activation_5[0][0]']        
 g2D)                                                                                             
                                                                                                  
 conv2d_6 (Conv2D)           (None, 32, 32, 512)          1180160   ['max_pooling2d_2[0][0]']     
                                                                                                  
 batch_normalization_6 (Bat  (None, 32, 32, 512)          2048      ['conv2d_6[0][0]']            
 chNormalization)                                                                                 
                                                                                                  
 activation_6 (Activation)   (None, 32, 32, 512)          0         ['batch_normalization_6[0][0]'
                                                                    ]                             
                                                                                                  
 conv2d_7 (Conv2D)           (None, 32, 32, 512)          2359808   ['activation_6[0][0]']        
                                                                                                  
 batch_normalization_7 (Bat  (None, 32, 32, 512)          2048      ['conv2d_7[0][0]']            
 chNormalization)                                                                                 
                                                                                                  
 activation_7 (Activation)   (None, 32, 32, 512)          0         ['batch_normalization_7[0][0]'
                                                                    ]                             
                                                                                                  
 max_pooling2d_3 (MaxPoolin  (None, 16, 16, 512)          0         ['activation_7[0][0]']        
 g2D)                                                                                             
                                                                                                  
 conv2d_8 (Conv2D)           (None, 16, 16, 1024)         4719616   ['max_pooling2d_3[0][0]']     
                                                                                                  
 batch_normalization_8 (Bat  (None, 16, 16, 1024)         4096      ['conv2d_8[0][0]']            
 chNormalization)                                                                                 
                                                                                                  
 activation_8 (Activation)   (None, 16, 16, 1024)         0         ['batch_normalization_8[0][0]'
                                                                    ]                             
                                                                                                  
 conv2d_9 (Conv2D)           (None, 16, 16, 1024)         9438208   ['activation_8[0][0]']        
                                                                                                  
 batch_normalization_9 (Bat  (None, 16, 16, 1024)         4096      ['conv2d_9[0][0]']            
 chNormalization)                                                                                 
                                                                                                  
 activation_9 (Activation)   (None, 16, 16, 1024)         0         ['batch_normalization_9[0][0]'
                                                                    ]                             
                                                                                                  
 up_sampling2d (UpSampling2  (None, 32, 32, 1024)         0         ['activation_9[0][0]']        
 D)                                                                                               
                                                                                                  
 concatenate (Concatenate)   (None, 32, 32, 1536)         0         ['up_sampling2d[0][0]',       
                                                                     'activation_7[0][0]']        
                                                                                                  
 conv2d_10 (Conv2D)          (None, 32, 32, 512)          7078400   ['concatenate[0][0]']         
                                                                                                  
 batch_normalization_10 (Ba  (None, 32, 32, 512)          2048      ['conv2d_10[0][0]']           
 tchNormalization)                                                                                
                                                                                                  
 activation_10 (Activation)  (None, 32, 32, 512)          0         ['batch_normalization_10[0][0]
                                                                    ']                            
                                                                                                  
 conv2d_11 (Conv2D)          (None, 32, 32, 512)          2359808   ['activation_10[0][0]']       
                                                                                                  
 batch_normalization_11 (Ba  (None, 32, 32, 512)          2048      ['conv2d_11[0][0]']           
 tchNormalization)                                                                                
                                                                                                  
 activation_11 (Activation)  (None, 32, 32, 512)          0         ['batch_normalization_11[0][0]
                                                                    ']                            
                                                                                                  
 up_sampling2d_1 (UpSamplin  (None, 64, 64, 512)          0         ['activation_11[0][0]']       
 g2D)                                                                                             
                                                                                                  
 concatenate_1 (Concatenate  (None, 64, 64, 768)          0         ['up_sampling2d_1[0][0]',     
 )                                                                   'activation_5[0][0]']        
                                                                                                  
 conv2d_12 (Conv2D)          (None, 64, 64, 256)          1769728   ['concatenate_1[0][0]']       
                                                                                                  
 batch_normalization_12 (Ba  (None, 64, 64, 256)          1024      ['conv2d_12[0][0]']           
 tchNormalization)                                                                                
                                                                                                  
 activation_12 (Activation)  (None, 64, 64, 256)          0         ['batch_normalization_12[0][0]
                                                                    ']                            
                                                                                                  
 conv2d_13 (Conv2D)          (None, 64, 64, 256)          590080    ['activation_12[0][0]']       
                                                                                                  
 batch_normalization_13 (Ba  (None, 64, 64, 256)          1024      ['conv2d_13[0][0]']           
 tchNormalization)                                                                                
                                                                                                  
 activation_13 (Activation)  (None, 64, 64, 256)          0         ['batch_normalization_13[0][0]
                                                                    ']                            
                                                                                                  
 up_sampling2d_2 (UpSamplin  (None, 128, 128, 256)        0         ['activation_13[0][0]']       
 g2D)                                                                                             
                                                                                                  
 concatenate_2 (Concatenate  (None, 128, 128, 384)        0         ['up_sampling2d_2[0][0]',     
 )                                                                   'activation_3[0][0]']        
                                                                                                  
 conv2d_14 (Conv2D)          (None, 128, 128, 128)        442496    ['concatenate_2[0][0]']       
                                                                                                  
 batch_normalization_14 (Ba  (None, 128, 128, 128)        512       ['conv2d_14[0][0]']           
 tchNormalization)                                                                                
                                                                                                  
 activation_14 (Activation)  (None, 128, 128, 128)        0         ['batch_normalization_14[0][0]
                                                                    ']                            
                                                                                                  
 conv2d_15 (Conv2D)          (None, 128, 128, 128)        147584    ['activation_14[0][0]']       
                                                                                                  
 batch_normalization_15 (Ba  (None, 128, 128, 128)        512       ['conv2d_15[0][0]']           
 tchNormalization)                                                                                
                                                                                                  
 activation_15 (Activation)  (None, 128, 128, 128)        0         ['batch_normalization_15[0][0]
                                                                    ']                            
                                                                                                  
 up_sampling2d_3 (UpSamplin  (None, 256, 256, 128)        0         ['activation_15[0][0]']       
 g2D)                                                                                             
                                                                                                  
 concatenate_3 (Concatenate  (None, 256, 256, 192)        0         ['up_sampling2d_3[0][0]',     
 )                                                                   'activation_1[0][0]']        
                                                                                                  
 conv2d_16 (Conv2D)          (None, 256, 256, 64)         110656    ['concatenate_3[0][0]']       
                                                                                                  
 batch_normalization_16 (Ba  (None, 256, 256, 64)         256       ['conv2d_16[0][0]']           
 tchNormalization)                                                                                
                                                                                                  
 activation_16 (Activation)  (None, 256, 256, 64)         0         ['batch_normalization_16[0][0]
                                                                    ']                            
                                                                                                  
 conv2d_17 (Conv2D)          (None, 256, 256, 64)         36928     ['activation_16[0][0]']       
                                                                                                  
 batch_normalization_17 (Ba  (None, 256, 256, 64)         256       ['conv2d_17[0][0]']           
 tchNormalization)                                                                                
                                                                                                  
 activation_17 (Activation)  (None, 256, 256, 64)         0         ['batch_normalization_17[0][0]
                                                                    ']                            
                                                                                                  
 conv2d_18 (Conv2D)          (None, 256, 256, 1)          65        ['activation_17[0][0]']       
                                                                                                  
 batch_normalization_18 (Ba  (None, 256, 256, 1)          4         ['conv2d_18[0][0]']           
 tchNormalization)                                                                                
                                                                                                  
 activation_18 (Activation)  (None, 256, 256, 1)          0         ['batch_normalization_18[0][0]
                                                                    ']                            
                                                                                                  
==================================================================================================
Total params: 31401349 (119.79 MB)
Trainable params: 31389571 (119.74 MB)
…
__________________________________________________________________________________________________
None
Model: "UNet"
__________________________________________________________________________________________________
 Layer (type)                Output Shape                 Param #   Connected to                  
==================================================================================================
 input_2 (InputLayer)        [(None, 256, 256, 3)]        0         []                            
                                                                                                  
 conv2d_19 (Conv2D)          (None, 256, 256, 64)         1792      ['input_2[0][0]']             
                                                                                                  
 batch_normalization_19 (Ba  (None, 256, 256, 64)         256       ['conv2d_19[0][0]']           
 tchNormalization)                                                                                
                                                                                                  
 activation_19 (Activation)  (None, 256, 256, 64)         0         ['batch_normalization_19[0][0]
                                                                    ']                            
                                                                                                  
 conv2d_20 (Conv2D)          (None, 256, 256, 64)         36928     ['activation_19[0][0]']       
                                                                                                  
 batch_normalization_20 (Ba  (None, 256, 256, 64)         256       ['conv2d_20[0][0]']           
 tchNormalization)                                                                                
                                                                                                  
 activation_20 (Activation)  (None, 256, 256, 64)         0         ['batch_normalization_20[0][0]
                                                                    ']                            
                                                                                                  
 max_pooling2d_4 (MaxPoolin  (None, 128, 128, 64)         0         ['activation_20[0][0]']       
 g2D)                                                                                             
                                                                                                  
 conv2d_21 (Conv2D)          (None, 128, 128, 128)        73856     ['max_pooling2d_4[0][0]']     
                                                                                                  
 batch_normalization_21 (Ba  (None, 128, 128, 128)        512       ['conv2d_21[0][0]']           
 tchNormalization)                                                                                
                                                                                                  
 activation_21 (Activation)  (None, 128, 128, 128)        0         ['batch_normalization_21[0][0]
                                                                    ']                            
                                                                                                  
 conv2d_22 (Conv2D)          (None, 128, 128, 128)        147584    ['activation_21[0][0]']       
                                                                                                  
 batch_normalization_22 (Ba  (None, 128, 128, 128)        512       ['conv2d_22[0][0]']           
 tchNormalization)                                                                                
                                                                                                  
 activation_22 (Activation)  (None, 128, 128, 128)        0         ['batch_normalization_22[0][0]
                                                                    ']                            
                                                                                                  
 max_pooling2d_5 (MaxPoolin  (None, 64, 64, 128)          0         ['activation_22[0][0]']       
 g2D)                                                                                             
                                                                                                  
 conv2d_23 (Conv2D)          (None, 64, 64, 256)          295168    ['max_pooling2d_5[0][0]']     
                                                                                                  
 batch_normalization_23 (Ba  (None, 64, 64, 256)          1024      ['conv2d_23[0][0]']           
 tchNormalization)                                                                                
                                                                                                  
 activation_23 (Activation)  (None, 64, 64, 256)          0         ['batch_normalization_23[0][0]
                                                                    ']                            
                                                                                                  
 conv2d_24 (Conv2D)          (None, 64, 64, 256)          590080    ['activation_23[0][0]']       
                                                                                                  
 batch_normalization_24 (Ba  (None, 64, 64, 256)          1024      ['conv2d_24[0][0]']           
 tchNormalization)                                                                                
                                                                                                  
 activation_24 (Activation)  (None, 64, 64, 256)          0         ['batch_normalization_24[0][0]
                                                                    ']                            
                                                                                                  
 max_pooling2d_6 (MaxPoolin  (None, 32, 32, 256)          0         ['activation_24[0][0]']       
 g2D)                                                                                             
                                                                                                  
 conv2d_25 (Conv2D)          (None, 32, 32, 512)          1180160   ['max_pooling2d_6[0][0]']     
                                                                                                  
 batch_normalization_25 (Ba  (None, 32, 32, 512)          2048      ['conv2d_25[0][0]']           
 tchNormalization)                                                                                
                                                                                                  
 activation_25 (Activation)  (None, 32, 32, 512)          0         ['batch_normalization_25[0][0]
                                                                    ']                            
                                                                                                  
 conv2d_26 (Conv2D)          (None, 32, 32, 512)          2359808   ['activation_25[0][0]']       
                                                                                                  
 batch_normalization_26 (Ba  (None, 32, 32, 512)          2048      ['conv2d_26[0][0]']           
 tchNormalization)                                                                                
                                                                                                  
 activation_26 (Activation)  (None, 32, 32, 512)          0         ['batch_normalization_26[0][0]
                                                                    ']                            
                                                                                                  
 max_pooling2d_7 (MaxPoolin  (None, 16, 16, 512)          0         ['activation_26[0][0]']       
 g2D)                                                                                             
                                                                                                  
 conv2d_27 (Conv2D)          (None, 16, 16, 1024)         4719616   ['max_pooling2d_7[0][0]']     
                                                                                                  
 batch_normalization_27 (Ba  (None, 16, 16, 1024)         4096      ['conv2d_27[0][0]']           
 tchNormalization)                                                                                
                                                                                                  
 activation_27 (Activation)  (None, 16, 16, 1024)         0         ['batch_normalization_27[0][0]
                                                                    ']                            
                                                                                                  
 conv2d_28 (Conv2D)          (None, 16, 16, 1024)         9438208   ['activation_27[0][0]']       
                                                                                                  
 batch_normalization_28 (Ba  (None, 16, 16, 1024)         4096      ['conv2d_28[0][0]']           
 tchNormalization)                                                                                
                                                                                                  
 activation_28 (Activation)  (None, 16, 16, 1024)         0         ['batch_normalization_28[0][0]
                                                                    ']                            
                                                                                                  
 up_sampling2d_4 (UpSamplin  (None, 32, 32, 1024)         0         ['activation_28[0][0]']       
 g2D)                                                                                             
                                                                                                  
 concatenate_4 (Concatenate  (None, 32, 32, 1536)         0         ['up_sampling2d_4[0][0]',     
 )                                                                   'activation_26[0][0]']       
                                                                                                  
 conv2d_29 (Conv2D)          (None, 32, 32, 512)          7078400   ['concatenate_4[0][0]']       
                                                                                                  
 batch_normalization_29 (Ba  (None, 32, 32, 512)          2048      ['conv2d_29[0][0]']           
 tchNormalization)                                                                                
                                                                                                  
 activation_29 (Activation)  (None, 32, 32, 512)          0         ['batch_normalization_29[0][0]
                                                                    ']                            
                                                                                                  
 conv2d_30 (Conv2D)          (None, 32, 32, 512)          2359808   ['activation_29[0][0]']       
                                                                                                  
 batch_normalization_30 (Ba  (None, 32, 32, 512)          2048      ['conv2d_30[0][0]']           
 tchNormalization)                                                                                
                                                                                                  
 activation_30 (Activation)  (None, 32, 32, 512)          0         ['batch_normalization_30[0][0]
                                                                    ']                            
                                                                                                  
 up_sampling2d_5 (UpSamplin  (None, 64, 64, 512)          0         ['activation_30[0][0]']       
 g2D)                                                                                             
                                                                                                  
 concatenate_5 (Concatenate  (None, 64, 64, 768)          0         ['up_sampling2d_5[0][0]',     
 )                                                                   'activation_24[0][0]']       
                                                                                                  
 conv2d_31 (Conv2D)          (None, 64, 64, 256)          1769728   ['concatenate_5[0][0]']       
                                                                                                  
 batch_normalization_31 (Ba  (None, 64, 64, 256)          1024      ['conv2d_31[0][0]']           
 tchNormalization)                                                                                
                                                                                                  
 activation_31 (Activation)  (None, 64, 64, 256)          0         ['batch_normalization_31[0][0]
                                                                    ']                            
                                                                                                  
 conv2d_32 (Conv2D)          (None, 64, 64, 256)          590080    ['activation_31[0][0]']       
                                                                                                  
 batch_normalization_32 (Ba  (None, 64, 64, 256)          1024      ['conv2d_32[0][0]']           
 tchNormalization)                                                                                
                                                                                                  
 activation_32 (Activation)  (None, 64, 64, 256)          0         ['batch_normalization_32[0][0]
                                                                    ']                            
                                                                                                  
 up_sampling2d_6 (UpSamplin  (None, 128, 128, 256)        0         ['activation_32[0][0]']       
 g2D)                                                                                             
                                                                                                  
 concatenate_6 (Concatenate  (None, 128, 128, 384)        0         ['up_sampling2d_6[0][0]',     
 )                                                                   'activation_22[0][0]']       
                                                                                                  
 conv2d_33 (Conv2D)          (None, 128, 128, 128)        442496    ['concatenate_6[0][0]']       
                                                                                                  
 batch_normalization_33 (Ba  (None, 128, 128, 128)        512       ['conv2d_33[0][0]']           
 tchNormalization)                                                                                
                                                                                                  
 activation_33 (Activation)  (None, 128, 128, 128)        0         ['batch_normalization_33[0][0]
                                                                    ']                            
                                                                                                  
 conv2d_34 (Conv2D)          (None, 128, 128, 128)        147584    ['activation_33[0][0]']       
                                                                                                  
 batch_normalization_34 (Ba  (None, 128, 128, 128)        512       ['conv2d_34[0][0]']           
 tchNormalization)                                                                                
                                                                                                  
 activation_34 (Activation)  (None, 128, 128, 128)        0         ['batch_normalization_34[0][0]
                                                                    ']                            
                                                                                                  
 up_sampling2d_7 (UpSamplin  (None, 256, 256, 128)        0         ['activation_34[0][0]']       
 g2D)                                                                                             
                                                                                                  
 concatenate_7 (Concatenate  (None, 256, 256, 192)        0         ['up_sampling2d_7[0][0]',     
 )                                                                   'activation_20[0][0]']       
                                                                                                  
 conv2d_35 (Conv2D)          (None, 256, 256, 64)         110656    ['concatenate_7[0][0]']       
                                                                                                  
 batch_normalization_35 (Ba  (None, 256, 256, 64)         256       ['conv2d_35[0][0]']           
 tchNormalization)                                                                                
                                                                                                  
 activation_35 (Activation)  (None, 256, 256, 64)         0         ['batch_normalization_35[0][0]
                                                                    ']                            
                                                                                                  
 conv2d_36 (Conv2D)          (None, 256, 256, 64)         36928     ['activation_35[0][0]']       
                                                                                                  
 batch_normalization_36 (Ba  (None, 256, 256, 64)         256       ['conv2d_36[0][0]']           
 tchNormalization)                                                                                
                                                                                                  
 activation_36 (Activation)  (None, 256, 256, 64)         0         ['batch_normalization_36[0][0]
                                                                    ']                            
                                                                                                  
 conv2d_37 (Conv2D)          (None, 256, 256, 1)          65        ['activation_36[0][0]']       
                                                                                                  
 batch_normalization_37 (Ba  (None, 256, 256, 1)          4         ['conv2d_37[0][0]']           
 tchNormalization)                                                                                
                                                                                                  
 activation_37 (Activation)  (None, 256, 256, 1)          0         ['batch_normalization_37[0][0]
                                                                    ']                            
                                                                                                  
==================================================================================================
Total params: 31402501 (119.79 MB)
Trainable params: 31390723 (119.75 MB)
…
WARNING:absl:`lr` is deprecated in TF-Keras optimizer, please use `learning_rate` or use the legacy optimizer, e.g.,tf.keras.optimizers.legacy.Adam.
UNet execution time is:  0:02:31.407617
Model: "Attention_UNet"
__________________________________________________________________________________________________
 Layer (type)                Output Shape                 Param #   Connected to                  
==================================================================================================
 input_3 (InputLayer)        [(None, 256, 256, 3)]        0         []                            
                                                                                                  
 conv2d_38 (Conv2D)          (None, 256, 256, 64)         1792      ['input_3[0][0]']             
                                                                                                  
 batch_normalization_38 (Ba  (None, 256, 256, 64)         256       ['conv2d_38[0][0]']           
 tchNormalization)                                                                                
                                                                                                  
 activation_38 (Activation)  (None, 256, 256, 64)         0         ['batch_normalization_38[0][0]
                                                                    ']                            
                                                                                                  
 conv2d_39 (Conv2D)          (None, 256, 256, 64)         36928     ['activation_38[0][0]']       
                                                                                                  
 batch_normalization_39 (Ba  (None, 256, 256, 64)         256       ['conv2d_39[0][0]']           
 tchNormalization)                                                                                
                                                                                                  
 activation_39 (Activation)  (None, 256, 256, 64)         0         ['batch_normalization_39[0][0]
                                                                    ']                            
                                                                                                  
 max_pooling2d_8 (MaxPoolin  (None, 128, 128, 64)         0         ['activation_39[0][0]']       
 g2D)                                                                                             
                                                                                                  
 conv2d_40 (Conv2D)          (None, 128, 128, 128)        73856     ['max_pooling2d_8[0][0]']     
                                                                                                  
 batch_normalization_40 (Ba  (None, 128, 128, 128)        512       ['conv2d_40[0][0]']           
 tchNormalization)                                                                                
                                                                                                  
 activation_40 (Activation)  (None, 128, 128, 128)        0         ['batch_normalization_40[0][0]
                                                                    ']                            
                                                                                                  
 conv2d_41 (Conv2D)          (None, 128, 128, 128)        147584    ['activation_40[0][0]']       
                                                                                                  
 batch_normalization_41 (Ba  (None, 128, 128, 128)        512       ['conv2d_41[0][0]']           
 tchNormalization)                                                                                
                                                                                                  
 activation_41 (Activation)  (None, 128, 128, 128)        0         ['batch_normalization_41[0][0]
                                                                    ']                            
                                                                                                  
 max_pooling2d_9 (MaxPoolin  (None, 64, 64, 128)          0         ['activation_41[0][0]']       
 g2D)                                                                                             
                                                                                                  
 conv2d_42 (Conv2D)          (None, 64, 64, 256)          295168    ['max_pooling2d_9[0][0]']     
                                                                                                  
 batch_normalization_42 (Ba  (None, 64, 64, 256)          1024      ['conv2d_42[0][0]']           
 tchNormalization)                                                                                
                                                                                                  
 activation_42 (Activation)  (None, 64, 64, 256)          0         ['batch_normalization_42[0][0]
                                                                    ']                            
                                                                                                  
 conv2d_43 (Conv2D)          (None, 64, 64, 256)          590080    ['activation_42[0][0]']       
                                                                                                  
 batch_normalization_43 (Ba  (None, 64, 64, 256)          1024      ['conv2d_43[0][0]']           
 tchNormalization)                                                                                
                                                                                                  
 activation_43 (Activation)  (None, 64, 64, 256)          0         ['batch_normalization_43[0][0]
                                                                    ']                            
                                                                                                  
 max_pooling2d_10 (MaxPooli  (None, 32, 32, 256)          0         ['activation_43[0][0]']       
 ng2D)                                                                                            
                                                                                                  
 conv2d_44 (Conv2D)          (None, 32, 32, 512)          1180160   ['max_pooling2d_10[0][0]']    
                                                                                                  
 batch_normalization_44 (Ba  (None, 32, 32, 512)          2048      ['conv2d_44[0][0]']           
 tchNormalization)                                                                                
                                                                                                  
 activation_44 (Activation)  (None, 32, 32, 512)          0         ['batch_normalization_44[0][0]
                                                                    ']                            
                                                                                                  
 conv2d_45 (Conv2D)          (None, 32, 32, 512)          2359808   ['activation_44[0][0]']       
                                                                                                  
 batch_normalization_45 (Ba  (None, 32, 32, 512)          2048      ['conv2d_45[0][0]']           
 tchNormalization)                                                                                
                                                                                                  
 activation_45 (Activation)  (None, 32, 32, 512)          0         ['batch_normalization_45[0][0]
                                                                    ']                            
                                                                                                  
 max_pooling2d_11 (MaxPooli  (None, 16, 16, 512)          0         ['activation_45[0][0]']       
 ng2D)                                                                                            
                                                                                                  
 conv2d_46 (Conv2D)          (None, 16, 16, 1024)         4719616   ['max_pooling2d_11[0][0]']    
                                                                                                  
 batch_normalization_46 (Ba  (None, 16, 16, 1024)         4096      ['conv2d_46[0][0]']           
 tchNormalization)                                                                                
                                                                                                  
 activation_46 (Activation)  (None, 16, 16, 1024)         0         ['batch_normalization_46[0][0]
                                                                    ']                            
                                                                                                  
 conv2d_47 (Conv2D)          (None, 16, 16, 1024)         9438208   ['activation_46[0][0]']       
                                                                                                  
 batch_normalization_47 (Ba  (None, 16, 16, 1024)         4096      ['conv2d_47[0][0]']           
 tchNormalization)                                                                                
                                                                                                  
 activation_47 (Activation)  (None, 16, 16, 1024)         0         ['batch_normalization_47[0][0]
                                                                    ']                            
                                                                                                  
 conv2d_48 (Conv2D)          (None, 16, 16, 512)          524800    ['activation_47[0][0]']       
                                                                                                  
 batch_normalization_48 (Ba  (None, 16, 16, 512)          2048      ['conv2d_48[0][0]']           
 tchNormalization)                                                                                
                                                                                                  
 activation_48 (Activation)  (None, 16, 16, 512)          0         ['batch_normalization_48[0][0]
                                                                    ']                            
                                                                                                  
 conv2d_50 (Conv2D)          (None, 16, 16, 512)          262656    ['activation_48[0][0]']       
                                                                                                  
 conv2d_transpose (Conv2DTr  (None, 16, 16, 512)          2359808   ['conv2d_50[0][0]']           
 anspose)                                                                                         
                                                                                                  
 conv2d_49 (Conv2D)          (None, 16, 16, 512)          1049088   ['activation_45[0][0]']       
                                                                                                  
 add (Add)                   (None, 16, 16, 512)          0         ['conv2d_transpose[0][0]',    
                                                                     'conv2d_49[0][0]']           
                                                                                                  
 activation_49 (Activation)  (None, 16, 16, 512)          0         ['add[0][0]']                 
                                                                                                  
 conv2d_51 (Conv2D)          (None, 16, 16, 1)            513       ['activation_49[0][0]']       
                                                                                                  
 activation_50 (Activation)  (None, 16, 16, 1)            0         ['conv2d_51[0][0]']           
                                                                                                  
 up_sampling2d_8 (UpSamplin  (None, 32, 32, 1)            0         ['activation_50[0][0]']       
 g2D)                                                                                             
                                                                                                  
 lambda (Lambda)             (None, 32, 32, 512)          0         ['up_sampling2d_8[0][0]']     
                                                                                                  
 multiply (Multiply)         (None, 32, 32, 512)          0         ['lambda[0][0]',              
                                                                     'activation_45[0][0]']       
                                                                                                  
 conv2d_52 (Conv2D)          (None, 32, 32, 512)          262656    ['multiply[0][0]']            
                                                                                                  
 up_sampling2d_9 (UpSamplin  (None, 32, 32, 1024)         0         ['activation_47[0][0]']       
 g2D)                                                                                             
                                                                                                  
 batch_normalization_49 (Ba  (None, 32, 32, 512)          2048      ['conv2d_52[0][0]']           
 tchNormalization)                                                                                
                                                                                                  
 concatenate_8 (Concatenate  (None, 32, 32, 1536)         0         ['up_sampling2d_9[0][0]',     
 )                                                                   'batch_normalization_49[0][0]
                                                                    ']                            
                                                                                                  
 conv2d_53 (Conv2D)          (None, 32, 32, 512)          7078400   ['concatenate_8[0][0]']       
                                                                                                  
 batch_normalization_50 (Ba  (None, 32, 32, 512)          2048      ['conv2d_53[0][0]']           
 tchNormalization)                                                                                
                                                                                                  
 activation_51 (Activation)  (None, 32, 32, 512)          0         ['batch_normalization_50[0][0]
                                                                    ']                            
                                                                                                  
 conv2d_54 (Conv2D)          (None, 32, 32, 512)          2359808   ['activation_51[0][0]']       
                                                                                                  
 batch_normalization_51 (Ba  (None, 32, 32, 512)          2048      ['conv2d_54[0][0]']           
 tchNormalization)                                                                                
                                                                                                  
 activation_52 (Activation)  (None, 32, 32, 512)          0         ['batch_normalization_51[0][0]
                                                                    ']                            
                                                                                                  
 conv2d_55 (Conv2D)          (None, 32, 32, 256)          131328    ['activation_52[0][0]']       
                                                                                                  
 batch_normalization_52 (Ba  (None, 32, 32, 256)          1024      ['conv2d_55[0][0]']           
 tchNormalization)                                                                                
                                                                                                  
 activation_53 (Activation)  (None, 32, 32, 256)          0         ['batch_normalization_52[0][0]
                                                                    ']                            
                                                                                                  
 conv2d_57 (Conv2D)          (None, 32, 32, 256)          65792     ['activation_53[0][0]']       
                                                                                                  
 conv2d_transpose_1 (Conv2D  (None, 32, 32, 256)          590080    ['conv2d_57[0][0]']           
 Transpose)                                                                                       
                                                                                                  
 conv2d_56 (Conv2D)          (None, 32, 32, 256)          262400    ['activation_43[0][0]']       
                                                                                                  
 add_1 (Add)                 (None, 32, 32, 256)          0         ['conv2d_transpose_1[0][0]',  
                                                                     'conv2d_56[0][0]']           
                                                                                                  
 activation_54 (Activation)  (None, 32, 32, 256)          0         ['add_1[0][0]']               
                                                                                                  
 conv2d_58 (Conv2D)          (None, 32, 32, 1)            257       ['activation_54[0][0]']       
                                                                                                  
 activation_55 (Activation)  (None, 32, 32, 1)            0         ['conv2d_58[0][0]']           
                                                                                                  
 up_sampling2d_10 (UpSampli  (None, 64, 64, 1)            0         ['activation_55[0][0]']       
 ng2D)                                                                                            
                                                                                                  
 lambda_1 (Lambda)           (None, 64, 64, 256)          0         ['up_sampling2d_10[0][0]']    
                                                                                                  
 multiply_1 (Multiply)       (None, 64, 64, 256)          0         ['lambda_1[0][0]',            
                                                                     'activation_43[0][0]']       
                                                                                                  
 conv2d_59 (Conv2D)          (None, 64, 64, 256)          65792     ['multiply_1[0][0]']          
                                                                                                  
 up_sampling2d_11 (UpSampli  (None, 64, 64, 512)          0         ['activation_52[0][0]']       
 ng2D)                                                                                            
                                                                                                  
 batch_normalization_53 (Ba  (None, 64, 64, 256)          1024      ['conv2d_59[0][0]']           
 tchNormalization)                                                                                
                                                                                                  
 concatenate_9 (Concatenate  (None, 64, 64, 768)          0         ['up_sampling2d_11[0][0]',    
 )                                                                   'batch_normalization_53[0][0]
                                                                    ']                            
                                                                                                  
 conv2d_60 (Conv2D)          (None, 64, 64, 256)          1769728   ['concatenate_9[0][0]']       
                                                                                                  
 batch_normalization_54 (Ba  (None, 64, 64, 256)          1024      ['conv2d_60[0][0]']           
 tchNormalization)                                                                                
                                                                                                  
 activation_56 (Activation)  (None, 64, 64, 256)          0         ['batch_normalization_54[0][0]
                                                                    ']                            
                                                                                                  
 conv2d_61 (Conv2D)          (None, 64, 64, 256)          590080    ['activation_56[0][0]']       
                                                                                                  
 batch_normalization_55 (Ba  (None, 64, 64, 256)          1024      ['conv2d_61[0][0]']           
 tchNormalization)                                                                                
                                                                                                  
 activation_57 (Activation)  (None, 64, 64, 256)          0         ['batch_normalization_55[0][0]
                                                                    ']                            
                                                                                                  
 conv2d_62 (Conv2D)          (None, 64, 64, 128)          32896     ['activation_57[0][0]']       
                                                                                                  
 batch_normalization_56 (Ba  (None, 64, 64, 128)          512       ['conv2d_62[0][0]']           
 tchNormalization)                                                                                
                                                                                                  
 activation_58 (Activation)  (None, 64, 64, 128)          0         ['batch_normalization_56[0][0]
                                                                    ']                            
                                                                                                  
 conv2d_64 (Conv2D)          (None, 64, 64, 128)          16512     ['activation_58[0][0]']       
                                                                                                  
 conv2d_transpose_2 (Conv2D  (None, 64, 64, 128)          147584    ['conv2d_64[0][0]']           
 Transpose)                                                                                       
                                                                                                  
 conv2d_63 (Conv2D)          (None, 64, 64, 128)          65664     ['activation_41[0][0]']       
                                                                                                  
 add_2 (Add)                 (None, 64, 64, 128)          0         ['conv2d_transpose_2[0][0]',  
                                                                     'conv2d_63[0][0]']           
                                                                                                  
 activation_59 (Activation)  (None, 64, 64, 128)          0         ['add_2[0][0]']               
                                                                                                  
 conv2d_65 (Conv2D)          (None, 64, 64, 1)            129       ['activation_59[0][0]']       
                                                                                                  
 activation_60 (Activation)  (None, 64, 64, 1)            0         ['conv2d_65[0][0]']           
                                                                                                  
 up_sampling2d_12 (UpSampli  (None, 128, 128, 1)          0         ['activation_60[0][0]']       
 ng2D)                                                                                            
                                                                                                  
 lambda_2 (Lambda)           (None, 128, 128, 128)        0         ['up_sampling2d_12[0][0]']    
                                                                                                  
 multiply_2 (Multiply)       (None, 128, 128, 128)        0         ['lambda_2[0][0]',            
                                                                     'activation_41[0][0]']       
                                                                                                  
 conv2d_66 (Conv2D)          (None, 128, 128, 128)        16512     ['multiply_2[0][0]']          
                                                                                                  
 up_sampling2d_13 (UpSampli  (None, 128, 128, 256)        0         ['activation_57[0][0]']       
 ng2D)                                                                                            
                                                                                                  
 batch_normalization_57 (Ba  (None, 128, 128, 128)        512       ['conv2d_66[0][0]']           
 tchNormalization)                                                                                
                                                                                                  
 concatenate_10 (Concatenat  (None, 128, 128, 384)        0         ['up_sampling2d_13[0][0]',    
 e)                                                                  'batch_normalization_57[0][0]
                                                                    ']                            
                                                                                                  
 conv2d_67 (Conv2D)          (None, 128, 128, 128)        442496    ['concatenate_10[0][0]']      
                                                                                                  
 batch_normalization_58 (Ba  (None, 128, 128, 128)        512       ['conv2d_67[0][0]']           
 tchNormalization)                                                                                
                                                                                                  
 activation_61 (Activation)  (None, 128, 128, 128)        0         ['batch_normalization_58[0][0]
                                                                    ']                            
                                                                                                  
 conv2d_68 (Conv2D)          (None, 128, 128, 128)        147584    ['activation_61[0][0]']       
                                                                                                  
 batch_normalization_59 (Ba  (None, 128, 128, 128)        512       ['conv2d_68[0][0]']           
 tchNormalization)                                                                                
                                                                                                  
 activation_62 (Activation)  (None, 128, 128, 128)        0         ['batch_normalization_59[0][0]
                                                                    ']                            
                                                                                                  
 conv2d_69 (Conv2D)          (None, 128, 128, 64)         8256      ['activation_62[0][0]']       
                                                                                                  
 batch_normalization_60 (Ba  (None, 128, 128, 64)         256       ['conv2d_69[0][0]']           
 tchNormalization)                                                                                
                                                                                                  
 activation_63 (Activation)  (None, 128, 128, 64)         0         ['batch_normalization_60[0][0]
                                                                    ']                            
                                                                                                  
 conv2d_71 (Conv2D)          (None, 128, 128, 64)         4160      ['activation_63[0][0]']       
                                                                                                  
 conv2d_transpose_3 (Conv2D  (None, 128, 128, 64)         36928     ['conv2d_71[0][0]']           
 Transpose)                                                                                       
                                                                                                  
 conv2d_70 (Conv2D)          (None, 128, 128, 64)         16448     ['activation_39[0][0]']       
                                                                                                  
 add_3 (Add)                 (None, 128, 128, 64)         0         ['conv2d_transpose_3[0][0]',  
                                                                     'conv2d_70[0][0]']           
                                                                                                  
 activation_64 (Activation)  (None, 128, 128, 64)         0         ['add_3[0][0]']               
                                                                                                  
 conv2d_72 (Conv2D)          (None, 128, 128, 1)          65        ['activation_64[0][0]']       
                                                                                                  
 activation_65 (Activation)  (None, 128, 128, 1)          0         ['conv2d_72[0][0]']           
                                                                                                  
 up_sampling2d_14 (UpSampli  (None, 256, 256, 1)          0         ['activation_65[0][0]']       
 ng2D)                                                                                            
                                                                                                  
 lambda_3 (Lambda)           (None, 256, 256, 64)         0         ['up_sampling2d_14[0][0]']    
                                                                                                  
 multiply_3 (Multiply)       (None, 256, 256, 64)         0         ['lambda_3[0][0]',            
                                                                     'activation_39[0][0]']       
                                                                                                  
 conv2d_73 (Conv2D)          (None, 256, 256, 64)         4160      ['multiply_3[0][0]']          
                                                                                                  
 up_sampling2d_15 (UpSampli  (None, 256, 256, 128)        0         ['activation_62[0][0]']       
 ng2D)                                                                                            
                                                                                                  
 batch_normalization_61 (Ba  (None, 256, 256, 64)         256       ['conv2d_73[0][0]']           
 tchNormalization)                                                                                
                                                                                                  
 concatenate_11 (Concatenat  (None, 256, 256, 192)        0         ['up_sampling2d_15[0][0]',    
 e)                                                                  'batch_normalization_61[0][0]
                                                                    ']                            
                                                                                                  
 conv2d_74 (Conv2D)          (None, 256, 256, 64)         110656    ['concatenate_11[0][0]']      
                                                                                                  
 batch_normalization_62 (Ba  (None, 256, 256, 64)         256       ['conv2d_74[0][0]']           
 tchNormalization)                                                                                
                                                                                                  
 activation_66 (Activation)  (None, 256, 256, 64)         0         ['batch_normalization_62[0][0]
                                                                    ']                            
                                                                                                  
 conv2d_75 (Conv2D)          (None, 256, 256, 64)         36928     ['activation_66[0][0]']       
                                                                                                  
 batch_normalization_63 (Ba  (None, 256, 256, 64)         256       ['conv2d_75[0][0]']           
 tchNormalization)                                                                                
                                                                                                  
 activation_67 (Activation)  (None, 256, 256, 64)         0         ['batch_normalization_63[0][0]
                                                                    ']                            
                                                                                                  
 conv2d_76 (Conv2D)          (None, 256, 256, 1)          65        ['activation_67[0][0]']       
                                                                                                  
 batch_normalization_64 (Ba  (None, 256, 256, 1)          4         ['conv2d_76[0][0]']           
 tchNormalization)                                                                                
                                                                                                  
 activation_68 (Activation)  (None, 256, 256, 1)          0         ['batch_normalization_64[0][0]
                                                                    ']                            
                                                                                                  
==================================================================================================
Total params: 37334665 (142.42 MB)
Trainable params: 37319047 (142.36 MB)
…
Attention UNet execution time is:  0:02:57.076548
Model: "AttentionResUNet"
__________________________________________________________________________________________________
 Layer (type)                Output Shape                 Param #   Connected to                  
==================================================================================================
 input_4 (InputLayer)        [(None, 256, 256, 3)]        0         []                            
                                                                                                  
 conv2d_77 (Conv2D)          (None, 256, 256, 64)         1792      ['input_4[0][0]']             
                                                                                                  
 batch_normalization_65 (Ba  (None, 256, 256, 64)         256       ['conv2d_77[0][0]']           
 tchNormalization)                                                                                
                                                                                                  
 activation_69 (Activation)  (None, 256, 256, 64)         0         ['batch_normalization_65[0][0]
                                                                    ']                            
                                                                                                  
 conv2d_79 (Conv2D)          (None, 256, 256, 64)         256       ['input_4[0][0]']             
                                                                                                  
 conv2d_78 (Conv2D)          (None, 256, 256, 64)         36928     ['activation_69[0][0]']       
                                                                                                  
 batch_normalization_67 (Ba  (None, 256, 256, 64)         256       ['conv2d_79[0][0]']           
 tchNormalization)                                                                                
                                                                                                  
 batch_normalization_66 (Ba  (None, 256, 256, 64)         256       ['conv2d_78[0][0]']           
 tchNormalization)                                                                                
                                                                                                  
 add_4 (Add)                 (None, 256, 256, 64)         0         ['batch_normalization_67[0][0]
                                                                    ',                            
                                                                     'batch_normalization_66[0][0]
                                                                    ']                            
                                                                                                  
 activation_70 (Activation)  (None, 256, 256, 64)         0         ['add_4[0][0]']               
                                                                                                  
 max_pooling2d_12 (MaxPooli  (None, 128, 128, 64)         0         ['activation_70[0][0]']       
 ng2D)                                                                                            
                                                                                                  
 conv2d_80 (Conv2D)          (None, 128, 128, 128)        73856     ['max_pooling2d_12[0][0]']    
                                                                                                  
 batch_normalization_68 (Ba  (None, 128, 128, 128)        512       ['conv2d_80[0][0]']           
 tchNormalization)                                                                                
                                                                                                  
 activation_71 (Activation)  (None, 128, 128, 128)        0         ['batch_normalization_68[0][0]
                                                                    ']                            
                                                                                                  
 conv2d_82 (Conv2D)          (None, 128, 128, 128)        8320      ['max_pooling2d_12[0][0]']    
                                                                                                  
 conv2d_81 (Conv2D)          (None, 128, 128, 128)        147584    ['activation_71[0][0]']       
                                                                                                  
 batch_normalization_70 (Ba  (None, 128, 128, 128)        512       ['conv2d_82[0][0]']           
 tchNormalization)                                                                                
                                                                                                  
 batch_normalization_69 (Ba  (None, 128, 128, 128)        512       ['conv2d_81[0][0]']           
 tchNormalization)                                                                                
                                                                                                  
 add_5 (Add)                 (None, 128, 128, 128)        0         ['batch_normalization_70[0][0]
                                                                    ',                            
                                                                     'batch_normalization_69[0][0]
                                                                    ']                            
                                                                                                  
 activation_72 (Activation)  (None, 128, 128, 128)        0         ['add_5[0][0]']               
                                                                                                  
 max_pooling2d_13 (MaxPooli  (None, 64, 64, 128)          0         ['activation_72[0][0]']       
 ng2D)                                                                                            
                                                                                                  
 conv2d_83 (Conv2D)          (None, 64, 64, 256)          295168    ['max_pooling2d_13[0][0]']    
                                                                                                  
 batch_normalization_71 (Ba  (None, 64, 64, 256)          1024      ['conv2d_83[0][0]']           
 tchNormalization)                                                                                
                                                                                                  
 activation_73 (Activation)  (None, 64, 64, 256)          0         ['batch_normalization_71[0][0]
                                                                    ']                            
                                                                                                  
 conv2d_85 (Conv2D)          (None, 64, 64, 256)          33024     ['max_pooling2d_13[0][0]']    
                                                                                                  
 conv2d_84 (Conv2D)          (None, 64, 64, 256)          590080    ['activation_73[0][0]']       
                                                                                                  
 batch_normalization_73 (Ba  (None, 64, 64, 256)          1024      ['conv2d_85[0][0]']           
 tchNormalization)                                                                                
                                                                                                  
 batch_normalization_72 (Ba  (None, 64, 64, 256)          1024      ['conv2d_84[0][0]']           
 tchNormalization)                                                                                
                                                                                                  
 add_6 (Add)                 (None, 64, 64, 256)          0         ['batch_normalization_73[0][0]
                                                                    ',                            
                                                                     'batch_normalization_72[0][0]
                                                                    ']                            
                                                                                                  
 activation_74 (Activation)  (None, 64, 64, 256)          0         ['add_6[0][0]']               
                                                                                                  
 max_pooling2d_14 (MaxPooli  (None, 32, 32, 256)          0         ['activation_74[0][0]']       
 ng2D)                                                                                            
                                                                                                  
 conv2d_86 (Conv2D)          (None, 32, 32, 512)          1180160   ['max_pooling2d_14[0][0]']    
                                                                                                  
 batch_normalization_74 (Ba  (None, 32, 32, 512)          2048      ['conv2d_86[0][0]']           
 tchNormalization)                                                                                
                                                                                                  
 activation_75 (Activation)  (None, 32, 32, 512)          0         ['batch_normalization_74[0][0]
                                                                    ']                            
                                                                                                  
 conv2d_88 (Conv2D)          (None, 32, 32, 512)          131584    ['max_pooling2d_14[0][0]']    
                                                                                                  
 conv2d_87 (Conv2D)          (None, 32, 32, 512)          2359808   ['activation_75[0][0]']       
                                                                                                  
 batch_normalization_76 (Ba  (None, 32, 32, 512)          2048      ['conv2d_88[0][0]']           
 tchNormalization)                                                                                
                                                                                                  
 batch_normalization_75 (Ba  (None, 32, 32, 512)          2048      ['conv2d_87[0][0]']           
 tchNormalization)                                                                                
                                                                                                  
 add_7 (Add)                 (None, 32, 32, 512)          0         ['batch_normalization_76[0][0]
                                                                    ',                            
                                                                     'batch_normalization_75[0][0]
                                                                    ']                            
                                                                                                  
 activation_76 (Activation)  (None, 32, 32, 512)          0         ['add_7[0][0]']               
                                                                                                  
 max_pooling2d_15 (MaxPooli  (None, 16, 16, 512)          0         ['activation_76[0][0]']       
 ng2D)                                                                                            
                                                                                                  
 conv2d_89 (Conv2D)          (None, 16, 16, 1024)         4719616   ['max_pooling2d_15[0][0]']    
                                                                                                  
 batch_normalization_77 (Ba  (None, 16, 16, 1024)         4096      ['conv2d_89[0][0]']           
 tchNormalization)                                                                                
                                                                                                  
 activation_77 (Activation)  (None, 16, 16, 1024)         0         ['batch_normalization_77[0][0]
                                                                    ']                            
                                                                                                  
 conv2d_91 (Conv2D)          (None, 16, 16, 1024)         525312    ['max_pooling2d_15[0][0]']    
                                                                                                  
 conv2d_90 (Conv2D)          (None, 16, 16, 1024)         9438208   ['activation_77[0][0]']       
                                                                                                  
 batch_normalization_79 (Ba  (None, 16, 16, 1024)         4096      ['conv2d_91[0][0]']           
 tchNormalization)                                                                                
                                                                                                  
 batch_normalization_78 (Ba  (None, 16, 16, 1024)         4096      ['conv2d_90[0][0]']           
 tchNormalization)                                                                                
                                                                                                  
 add_8 (Add)                 (None, 16, 16, 1024)         0         ['batch_normalization_79[0][0]
                                                                    ',                            
                                                                     'batch_normalization_78[0][0]
                                                                    ']                            
                                                                                                  
 activation_78 (Activation)  (None, 16, 16, 1024)         0         ['add_8[0][0]']               
                                                                                                  
 conv2d_92 (Conv2D)          (None, 16, 16, 512)          524800    ['activation_78[0][0]']       
                                                                                                  
 batch_normalization_80 (Ba  (None, 16, 16, 512)          2048      ['conv2d_92[0][0]']           
 tchNormalization)                                                                                
                                                                                                  
 activation_79 (Activation)  (None, 16, 16, 512)          0         ['batch_normalization_80[0][0]
                                                                    ']                            
                                                                                                  
 conv2d_94 (Conv2D)          (None, 16, 16, 512)          262656    ['activation_79[0][0]']       
                                                                                                  
 conv2d_transpose_4 (Conv2D  (None, 16, 16, 512)          2359808   ['conv2d_94[0][0]']           
 Transpose)                                                                                       
                                                                                                  
 conv2d_93 (Conv2D)          (None, 16, 16, 512)          1049088   ['activation_76[0][0]']       
                                                                                                  
 add_9 (Add)                 (None, 16, 16, 512)          0         ['conv2d_transpose_4[0][0]',  
                                                                     'conv2d_93[0][0]']           
                                                                                                  
 activation_80 (Activation)  (None, 16, 16, 512)          0         ['add_9[0][0]']               
                                                                                                  
 conv2d_95 (Conv2D)          (None, 16, 16, 1)            513       ['activation_80[0][0]']       
                                                                                                  
 activation_81 (Activation)  (None, 16, 16, 1)            0         ['conv2d_95[0][0]']           
                                                                                                  
 up_sampling2d_16 (UpSampli  (None, 32, 32, 1)            0         ['activation_81[0][0]']       
 ng2D)                                                                                            
                                                                                                  
 lambda_4 (Lambda)           (None, 32, 32, 512)          0         ['up_sampling2d_16[0][0]']    
                                                                                                  
 multiply_4 (Multiply)       (None, 32, 32, 512)          0         ['lambda_4[0][0]',            
                                                                     'activation_76[0][0]']       
                                                                                                  
 conv2d_96 (Conv2D)          (None, 32, 32, 512)          262656    ['multiply_4[0][0]']          
                                                                                                  
 up_sampling2d_17 (UpSampli  (None, 32, 32, 1024)         0         ['activation_78[0][0]']       
 ng2D)                                                                                            
                                                                                                  
 batch_normalization_81 (Ba  (None, 32, 32, 512)          2048      ['conv2d_96[0][0]']           
 tchNormalization)                                                                                
                                                                                                  
 concatenate_12 (Concatenat  (None, 32, 32, 1536)         0         ['up_sampling2d_17[0][0]',    
 e)                                                                  'batch_normalization_81[0][0]
                                                                    ']                            
                                                                                                  
 conv2d_97 (Conv2D)          (None, 32, 32, 512)          7078400   ['concatenate_12[0][0]']      
                                                                                                  
 batch_normalization_82 (Ba  (None, 32, 32, 512)          2048      ['conv2d_97[0][0]']           
 tchNormalization)                                                                                
                                                                                                  
 activation_82 (Activation)  (None, 32, 32, 512)          0         ['batch_normalization_82[0][0]
                                                                    ']                            
                                                                                                  
 conv2d_99 (Conv2D)          (None, 32, 32, 512)          786944    ['concatenate_12[0][0]']      
                                                                                                  
 conv2d_98 (Conv2D)          (None, 32, 32, 512)          2359808   ['activation_82[0][0]']       
                                                                                                  
 batch_normalization_84 (Ba  (None, 32, 32, 512)          2048      ['conv2d_99[0][0]']           
 tchNormalization)                                                                                
                                                                                                  
 batch_normalization_83 (Ba  (None, 32, 32, 512)          2048      ['conv2d_98[0][0]']           
 tchNormalization)                                                                                
                                                                                                  
 add_10 (Add)                (None, 32, 32, 512)          0         ['batch_normalization_84[0][0]
                                                                    ',                            
                                                                     'batch_normalization_83[0][0]
                                                                    ']                            
                                                                                                  
 activation_83 (Activation)  (None, 32, 32, 512)          0         ['add_10[0][0]']              
                                                                                                  
 conv2d_100 (Conv2D)         (None, 32, 32, 256)          131328    ['activation_83[0][0]']       
                                                                                                  
 batch_normalization_85 (Ba  (None, 32, 32, 256)          1024      ['conv2d_100[0][0]']          
 tchNormalization)                                                                                
                                                                                                  
 activation_84 (Activation)  (None, 32, 32, 256)          0         ['batch_normalization_85[0][0]
                                                                    ']                            
                                                                                                  
 conv2d_102 (Conv2D)         (None, 32, 32, 256)          65792     ['activation_84[0][0]']       
                                                                                                  
 conv2d_transpose_5 (Conv2D  (None, 32, 32, 256)          590080    ['conv2d_102[0][0]']          
 Transpose)                                                                                       
                                                                                                  
 conv2d_101 (Conv2D)         (None, 32, 32, 256)          262400    ['activation_74[0][0]']       
                                                                                                  
 add_11 (Add)                (None, 32, 32, 256)          0         ['conv2d_transpose_5[0][0]',  
                                                                     'conv2d_101[0][0]']          
                                                                                                  
 activation_85 (Activation)  (None, 32, 32, 256)          0         ['add_11[0][0]']              
                                                                                                  
 conv2d_103 (Conv2D)         (None, 32, 32, 1)            257       ['activation_85[0][0]']       
                                                                                                  
 activation_86 (Activation)  (None, 32, 32, 1)            0         ['conv2d_103[0][0]']          
                                                                                                  
 up_sampling2d_18 (UpSampli  (None, 64, 64, 1)            0         ['activation_86[0][0]']       
 ng2D)                                                                                            
                                                                                                  
 lambda_5 (Lambda)           (None, 64, 64, 256)          0         ['up_sampling2d_18[0][0]']    
                                                                                                  
 multiply_5 (Multiply)       (None, 64, 64, 256)          0         ['lambda_5[0][0]',            
                                                                     'activation_74[0][0]']       
                                                                                                  
 conv2d_104 (Conv2D)         (None, 64, 64, 256)          65792     ['multiply_5[0][0]']          
                                                                                                  
 up_sampling2d_19 (UpSampli  (None, 64, 64, 512)          0         ['activation_83[0][0]']       
 ng2D)                                                                                            
                                                                                                  
 batch_normalization_86 (Ba  (None, 64, 64, 256)          1024      ['conv2d_104[0][0]']          
 tchNormalization)                                                                                
                                                                                                  
 concatenate_13 (Concatenat  (None, 64, 64, 768)          0         ['up_sampling2d_19[0][0]',    
 e)                                                                  'batch_normalization_86[0][0]
                                                                    ']                            
                                                                                                  
 conv2d_105 (Conv2D)         (None, 64, 64, 256)          1769728   ['concatenate_13[0][0]']      
                                                                                                  
 batch_normalization_87 (Ba  (None, 64, 64, 256)          1024      ['conv2d_105[0][0]']          
 tchNormalization)                                                                                
                                                                                                  
 activation_87 (Activation)  (None, 64, 64, 256)          0         ['batch_normalization_87[0][0]
                                                                    ']                            
                                                                                                  
 conv2d_107 (Conv2D)         (None, 64, 64, 256)          196864    ['concatenate_13[0][0]']      
                                                                                                  
 conv2d_106 (Conv2D)         (None, 64, 64, 256)          590080    ['activation_87[0][0]']       
                                                                                                  
 batch_normalization_89 (Ba  (None, 64, 64, 256)          1024      ['conv2d_107[0][0]']          
 tchNormalization)                                                                                
                                                                                                  
 batch_normalization_88 (Ba  (None, 64, 64, 256)          1024      ['conv2d_106[0][0]']          
 tchNormalization)                                                                                
                                                                                                  
 add_12 (Add)                (None, 64, 64, 256)          0         ['batch_normalization_89[0][0]
                                                                    ',                            
                                                                     'batch_normalization_88[0][0]
                                                                    ']                            
                                                                                                  
 activation_88 (Activation)  (None, 64, 64, 256)          0         ['add_12[0][0]']              
                                                                                                  
 conv2d_108 (Conv2D)         (None, 64, 64, 128)          32896     ['activation_88[0][0]']       
                                                                                                  
 batch_normalization_90 (Ba  (None, 64, 64, 128)          512       ['conv2d_108[0][0]']          
 tchNormalization)                                                                                
                                                                                                  
 activation_89 (Activation)  (None, 64, 64, 128)          0         ['batch_normalization_90[0][0]
                                                                    ']                            
                                                                                                  
 conv2d_110 (Conv2D)         (None, 64, 64, 128)          16512     ['activation_89[0][0]']       
                                                                                                  
 conv2d_transpose_6 (Conv2D  (None, 64, 64, 128)          147584    ['conv2d_110[0][0]']          
 Transpose)                                                                                       
                                                                                                  
 conv2d_109 (Conv2D)         (None, 64, 64, 128)          65664     ['activation_72[0][0]']       
                                                                                                  
 add_13 (Add)                (None, 64, 64, 128)          0         ['conv2d_transpose_6[0][0]',  
                                                                     'conv2d_109[0][0]']          
                                                                                                  
 activation_90 (Activation)  (None, 64, 64, 128)          0         ['add_13[0][0]']              
                                                                                                  
 conv2d_111 (Conv2D)         (None, 64, 64, 1)            129       ['activation_90[0][0]']       
                                                                                                  
 activation_91 (Activation)  (None, 64, 64, 1)            0         ['conv2d_111[0][0]']          
                                                                                                  
 up_sampling2d_20 (UpSampli  (None, 128, 128, 1)          0         ['activation_91[0][0]']       
 ng2D)                                                                                            
                                                                                                  
 lambda_6 (Lambda)           (None, 128, 128, 128)        0         ['up_sampling2d_20[0][0]']    
                                                                                                  
 multiply_6 (Multiply)       (None, 128, 128, 128)        0         ['lambda_6[0][0]',            
                                                                     'activation_72[0][0]']       
                                                                                                  
 conv2d_112 (Conv2D)         (None, 128, 128, 128)        16512     ['multiply_6[0][0]']          
                                                                                                  
 up_sampling2d_21 (UpSampli  (None, 128, 128, 256)        0         ['activation_88[0][0]']       
 ng2D)                                                                                            
                                                                                                  
 batch_normalization_91 (Ba  (None, 128, 128, 128)        512       ['conv2d_112[0][0]']          
 tchNormalization)                                                                                
                                                                                                  
 concatenate_14 (Concatenat  (None, 128, 128, 384)        0         ['up_sampling2d_21[0][0]',    
 e)                                                                  'batch_normalization_91[0][0]
                                                                    ']                            
                                                                                                  
 conv2d_113 (Conv2D)         (None, 128, 128, 128)        442496    ['concatenate_14[0][0]']      
                                                                                                  
 batch_normalization_92 (Ba  (None, 128, 128, 128)        512       ['conv2d_113[0][0]']          
 tchNormalization)                                                                                
                                                                                                  
 activation_92 (Activation)  (None, 128, 128, 128)        0         ['batch_normalization_92[0][0]
                                                                    ']                            
                                                                                                  
 conv2d_115 (Conv2D)         (None, 128, 128, 128)        49280     ['concatenate_14[0][0]']      
                                                                                                  
 conv2d_114 (Conv2D)         (None, 128, 128, 128)        147584    ['activation_92[0][0]']       
                                                                                                  
 batch_normalization_94 (Ba  (None, 128, 128, 128)        512       ['conv2d_115[0][0]']          
 tchNormalization)                                                                                
                                                                                                  
 batch_normalization_93 (Ba  (None, 128, 128, 128)        512       ['conv2d_114[0][0]']          
 tchNormalization)                                                                                
                                                                                                  
 add_14 (Add)                (None, 128, 128, 128)        0         ['batch_normalization_94[0][0]
                                                                    ',                            
                                                                     'batch_normalization_93[0][0]
                                                                    ']                            
                                                                                                  
 activation_93 (Activation)  (None, 128, 128, 128)        0         ['add_14[0][0]']              
                                                                                                  
 conv2d_116 (Conv2D)         (None, 128, 128, 64)         8256      ['activation_93[0][0]']       
                                                                                                  
 batch_normalization_95 (Ba  (None, 128, 128, 64)         256       ['conv2d_116[0][0]']          
 tchNormalization)                                                                                
                                                                                                  
 activation_94 (Activation)  (None, 128, 128, 64)         0         ['batch_normalization_95[0][0]
                                                                    ']                            
                                                                                                  
 conv2d_118 (Conv2D)         (None, 128, 128, 64)         4160      ['activation_94[0][0]']       
                                                                                                  
 conv2d_transpose_7 (Conv2D  (None, 128, 128, 64)         36928     ['conv2d_118[0][0]']          
 Transpose)                                                                                       
                                                                                                  
 conv2d_117 (Conv2D)         (None, 128, 128, 64)         16448     ['activation_70[0][0]']       
                                                                                                  
 add_15 (Add)                (None, 128, 128, 64)         0         ['conv2d_transpose_7[0][0]',  
                                                                     'conv2d_117[0][0]']          
                                                                                                  
 activation_95 (Activation)  (None, 128, 128, 64)         0         ['add_15[0][0]']              
                                                                                                  
 conv2d_119 (Conv2D)         (None, 128, 128, 1)          65        ['activation_95[0][0]']       
                                                                                                  
 activation_96 (Activation)  (None, 128, 128, 1)          0         ['conv2d_119[0][0]']          
                                                                                                  
 up_sampling2d_22 (UpSampli  (None, 256, 256, 1)          0         ['activation_96[0][0]']       
 ng2D)                                                                                            
                                                                                                  
 lambda_7 (Lambda)           (None, 256, 256, 64)         0         ['up_sampling2d_22[0][0]']    
                                                                                                  
 multiply_7 (Multiply)       (None, 256, 256, 64)         0         ['lambda_7[0][0]',            
                                                                     'activation_70[0][0]']       
                                                                                                  
 conv2d_120 (Conv2D)         (None, 256, 256, 64)         4160      ['multiply_7[0][0]']          
                                                                                                  
 up_sampling2d_23 (UpSampli  (None, 256, 256, 128)        0         ['activation_93[0][0]']       
 ng2D)                                                                                            
                                                                                                  
 batch_normalization_96 (Ba  (None, 256, 256, 64)         256       ['conv2d_120[0][0]']          
 tchNormalization)                                                                                
                                                                                                  
 concatenate_15 (Concatenat  (None, 256, 256, 192)        0         ['up_sampling2d_23[0][0]',    
 e)                                                                  'batch_normalization_96[0][0]
                                                                    ']                            
                                                                                                  
 conv2d_121 (Conv2D)         (None, 256, 256, 64)         110656    ['concatenate_15[0][0]']      
                                                                                                  
 batch_normalization_97 (Ba  (None, 256, 256, 64)         256       ['conv2d_121[0][0]']          
 tchNormalization)                                                                                
                                                                                                  
 activation_97 (Activation)  (None, 256, 256, 64)         0         ['batch_normalization_97[0][0]
                                                                    ']                            
                                                                                                  
 conv2d_123 (Conv2D)         (None, 256, 256, 64)         12352     ['concatenate_15[0][0]']      
                                                                                                  
 conv2d_122 (Conv2D)         (None, 256, 256, 64)         36928     ['activation_97[0][0]']       
                                                                                                  
 batch_normalization_99 (Ba  (None, 256, 256, 64)         256       ['conv2d_123[0][0]']          
 tchNormalization)                                                                                
                                                                                                  
 batch_normalization_98 (Ba  (None, 256, 256, 64)         256       ['conv2d_122[0][0]']          
 tchNormalization)                                                                                
                                                                                                  
 add_16 (Add)                (None, 256, 256, 64)         0         ['batch_normalization_99[0][0]
                                                                    ',                            
                                                                     'batch_normalization_98[0][0]
                                                                    ']                            
                                                                                                  
 activation_98 (Activation)  (None, 256, 256, 64)         0         ['add_16[0][0]']              
                                                                                                  
 conv2d_124 (Conv2D)         (None, 256, 256, 1)          65        ['activation_98[0][0]']       
                                                                                                  
 batch_normalization_100 (B  (None, 256, 256, 1)          4         ['conv2d_124[0][0]']          
 atchNormalization)                                                                               
                                                                                                  
 activation_99 (Activation)  (None, 256, 256, 1)          0         ['batch_normalization_100[0][0
                                                                    ]']                           
                                                                                                  
==================================================================================================
Total params: 39090377 (149.12 MB)
Trainable params: 39068871 (149.04 MB)
…
